<?xml version="1.0" ?>
<net batch="1" name="keras_iris_model" version="6">
	<layers>
		<layer id="0" name="dense_1_input" precision="FP32" type="Input">
			<output>
				<port id="0">
					<dim>10</dim>
					<dim>4</dim>
				</port>
			</output>
		</layer>
		<layer id="1" name="dense_1" precision="FP32" type="FullyConnected">
			<data out-size="50.0"/>
			<input>
				<port id="0">
					<dim>10</dim>
					<dim>4</dim>
				</port>
			</input>
			<output>
				<port id="3">
					<dim>10</dim>
					<dim>50</dim>
				</port>
			</output>
			<blobs>
				<weights offset="0" size="800"/>
				<biases offset="800" size="200"/>
			</blobs>
		</layer>
		<layer id="2" name="Relu1" precision="FP32" type="ReLU">
			<input>
				<port id="0">
					<dim>10</dim>
					<dim>50</dim>
				</port>
			</input>
			<output>
				<port id="1">
					<dim>10</dim>
					<dim>50</dim>
				</port>
			</output>
		</layer>
		<layer id="3" name="dense_2" precision="FP32" type="FullyConnected">
			<data out-size="50.0"/>
			<input>
				<port id="0">
					<dim>10</dim>
					<dim>50</dim>
				</port>
			</input>
			<output>
				<port id="3">
					<dim>10</dim>
					<dim>50</dim>
				</port>
			</output>
			<blobs>
				<weights offset="1000" size="10000"/>
				<biases offset="11000" size="200"/>
			</blobs>
		</layer>
		<layer id="4" name="Relu" precision="FP32" type="ReLU">
			<input>
				<port id="0">
					<dim>10</dim>
					<dim>50</dim>
				</port>
			</input>
			<output>
				<port id="1">
					<dim>10</dim>
					<dim>50</dim>
				</port>
			</output>
		</layer>
		<layer id="5" name="dense_3" precision="FP32" type="FullyConnected">
			<data out-size="3.0"/>
			<input>
				<port id="0">
					<dim>10</dim>
					<dim>50</dim>
				</port>
			</input>
			<output>
				<port id="3">
					<dim>10</dim>
					<dim>3</dim>
				</port>
			</output>
			<blobs>
				<weights offset="11200" size="600"/>
				<biases offset="11800" size="12"/>
			</blobs>
		</layer>
		<layer id="6" name="Softmax" precision="FP32" type="SoftMax">
			<data axis="1"/>
			<input>
				<port id="0">
					<dim>10</dim>
					<dim>3</dim>
				</port>
			</input>
			<output>
				<port id="1">
					<dim>10</dim>
					<dim>3</dim>
				</port>
			</output>
		</layer>
	</layers>
	<edges>
		<edge from-layer="0" from-port="0" to-layer="1" to-port="0"/>
		<edge from-layer="1" from-port="3" to-layer="2" to-port="0"/>
		<edge from-layer="2" from-port="1" to-layer="3" to-port="0"/>
		<edge from-layer="3" from-port="3" to-layer="4" to-port="0"/>
		<edge from-layer="4" from-port="1" to-layer="5" to-port="0"/>
		<edge from-layer="5" from-port="3" to-layer="6" to-port="0"/>
	</edges>
	<meta_data>
		<MO_version value="2019.3.0-408-gac8584cb7"/>
		<cli_parameters>
			<blobs_as_inputs value="False"/>
			<caffe_parser_path value="DIR"/>
			<data_type value="float"/>
			<disable_nhwc_to_nchw value="False"/>
			<disable_omitting_optional value="False"/>
			<disable_resnet_optimization value="False"/>
			<enable_concat_optimization value="False"/>
			<enable_flattening_nested_params value="False"/>
			<enable_ssd_gluoncv value="False"/>
			<extensions value="DIR"/>
			<framework value="onnx"/>
			<freeze_placeholder_with_value value="{}"/>
			<generate_experimental_IR_V10 value="False"/>
			<input_model value="DIR\keras_iris_model.onnx"/>
			<input_model_is_text value="False"/>
			<input_shape value="[10,4]"/>
			<k value="DIR\CustomLayersMapping.xml"/>
			<keep_quantize_ops_in_IR value="False"/>
			<keep_shape_ops value="False"/>
			<legacy_mxnet_model value="False"/>
			<log_level value="WARNING"/>
			<mean_scale_values value="{}"/>
			<mean_values value="()"/>
			<move_to_preprocess value="False"/>
			<output_dir value="DIR"/>
			<placeholder_shapes value="[10  4]"/>
			<remove_memory value="False"/>
			<remove_output_softmax value="False"/>
			<reverse_input_channels value="False"/>
			<save_params_from_nd value="False"/>
			<scale_values value="()"/>
			<silent value="False"/>
			<steps value="False"/>
			<version value="False"/>
			<unset unset_cli_parameters="batch, counts, disable_fusing, disable_gfusing, finegrain_fusing, generate_deprecated_IR_V2, input, input_checkpoint, input_meta_graph, input_proto, input_symbol, mean_file, mean_file_offsets, model_name, nd_prefix_name, output, pretrained_model_name, saved_model_dir, saved_model_tags, scale, tensorboard_logdir, tensorflow_custom_layer_libraries, tensorflow_custom_operations_config_update, tensorflow_object_detection_api_pipeline_config, tensorflow_operation_patterns, tensorflow_subgraph_patterns, tensorflow_use_custom_operations_config"/>
		</cli_parameters>
	</meta_data>
</net>
